…
MA, in other operations, rebuild TensorFlow with the appropriate compiler flags.\n2024-03-12 17:55:07.601961: I tensorflow/core/common_runtime/gpu/gpu_device.cc:1639] Created device /job:localhost/replica:0/task:0/device:GPU:0 with 78945 MB memory:  -&gt; device: 0, name: NVIDIA A100-SXM4-80GB, pci bus id: 0000:46:00.0, compute capability: 8.0\nModel: \"sequential\"\n_________________________________________________________________\n Layer (type)                Output Shape              Param #   \n=================================================================\n conv2d (Conv2D)             (None, 30, 30, 32)        896       \n\n max_pooling2d (MaxPooling2  (None, 15, 15, 32)        0         \n D)                                                              \n\n conv2d_1 (Conv2D)           (None, 13, 13, 64)        18496     \n\n max_pooling2d_1 (MaxPoolin  (None, 6, 6, 64)          0         \n g2D)                                                            \n\n conv2d_2 (Conv2D)           (None, 4, 4, 64)          36928     \n\n flatten (Flatten)           (None, 1024)              0         \n\n dense (Dense)               (None, 64)                65600     \n\n dense_1 (Dense)             (None, 10)                650       \n\n=================================================================\nTotal params: 122570 (478.79 KB)\nTrainable params: 122570 (478.79 KB)\nNon-trainable params: 0 (0.00 Byte)\n_________________________________________________________________\nNone\nEpoch 1/5\n2024-03-12 17:55:10.015697: I tensorflow/compiler/xla/stream_executor/cuda/cuda_dnn.cc:432] Loaded cuDNN version 8600\n2024-03-12
…
mon_runtime/gpu/gpu_device.cc:1956] Cannot dlopen some GPU libraries. Please make sure the missing libraries mentioned above are installed properly if you would like to use GPU. Follow the guide at https://www.tensorflow.org/install/gpu for how to download and setup the required libraries for your platform.\nSkipping registering GPU devices...\nModel: \"sequential\"\n_________________________________________________________________\n Layer (type)                Output Shape              Param #   \n=================================================================\n conv2d (Conv2D)             (None, 30, 30, 32)        896       \n\n max_pooling2d (MaxPooling2D  (None, 15, 15, 32)       0         \n )                                                               \n\n conv2d_1 (Conv2D)           (None, 13, 13, 64)        18496     \n\n max_pooling2d_1 (MaxPooling  (None, 6, 6, 64)         0         \n 2D)                                                             \n\n conv2d_2 (Conv2D)           (None, 4, 4, 64)          36928     \n\n flatten (Flatten)           (None, 1024)              0         \n\n dense (Dense)               (None, 64)                65600     \n\n dense_1 (Dense)             (None, 10)                650       \n\n=================================================================\nTotal params: 122,570\nTrainable params: 122,570\nNon-trainable params: 0\n_________________________________________________________________\nNone\nEpoch 1/5\n1563/1563 [==============================] - 37s 23ms/step - loss: 1.5266 - accuracy: 0.4439 - val_loss: 1.3006 - val_accuracy: 0.5370\nEpoch 2/5\n1563/1563 [=====
…
